module {
  memref.global "private" constant @__constant_8xf32 : memref<8xf32> = dense<[-0.0442584679, 0.0343669318, 0.0432738774, -0.0237650368, 0.0289943442, 0.0899450332, -0.00377512071, -0.101703987]> {alignment = 64 : i64}
  memref.global "private" constant @constant_600xf32_0 : memref<600xf32> = dense<"…"> {alignment = 64 : i64}
  memref.global "private" constant @constant_10944xf32_1 : memref<10944xf32> = dense<"…"> {alignment = 64 : i64}
  memref.global "private" constant @__constant_2xf32 : memref<2xf32> = dense<[8.409150e-03, -0.00494694198]> {alignment = 64 : i64}
  func.func private @main(%arg0: memref<14400xf32>, %arg1: memref<2xf32>) {
    %c4800 = arith.constant 4800 : index
    %c80 = arith.constant 80 : index
    %c60 = arith.constant 60 : index
    %c4256 = arith.constant 4256 : index
    %c684 = arith.constant 684 : index
    %c5472 = arith.constant 5472 : index
    %c2 = arith.constant 2 : index
    %c18 = arith.constant 18 : index
    %c38 = arith.constant 38 : index
    %c5 = arith.constant 5 : index
    %c3 = arith.constant 3 : index
    %c56 = arith.constant 56 : index
    %c76 = arith.constant 76 : index
    %c8 = arith.constant 8 : index
    %c1 = arith.constant 1 : index
    %c0 = arith.constant 0 : index
    %cst = arith.constant 0.000000e+00 : f32
    %cst_0 = arith.constant 0xFF800000 : f32
    %0 = memref.get_global @__constant_2xf32 : memref<2xf32>
    %1 = memref.get_global @constant_10944xf32_1 : memref<10944xf32>
    %2 = memref.get_global @constant_600xf32_0 : memref<600xf32>
    %3 = memref.get_global @__constant_8xf32 : memref<8xf32>
    %alloc = memref.alloc() : memref<34048xf32>
    %4:2 = scf.for %arg2 = %c0 to %c8 step %c1 iter_args(%arg3 = %c0, %arg4 = %c0) -> (index, index) {
      %9 = scf.for %arg5 = %c0 to %c76 step %c1 iter_args(%arg6 = %arg4) -> (index) {
        scf.for %arg7 = %c0 to %c56 step %c1 {
          %13 = memref.load %3[%arg2] : memref<8xf32>
          %14 = arith.addi %arg6, %arg7 : index
          memref.store %13, %alloc[%14] : memref<34048xf32>
        }
        %12 = arith.addi %arg6, %c56 : index
        scf.yield %12 : index
      }
      %10 = arith.addi %arg3, %c76 : index
      %11 = arith.addi %arg4, %c4256 : index
      scf.yield %10, %11 : index, index
    }
    %5:3 = scf.for %arg2 = %c0 to %c8 step %c1 iter_args(%arg3 = %c0, %arg4 = %c0, %arg5 = %c0) -> (index, index, index) {
      %9 = scf.for %arg6 = %c0 to %c76 step %c1 iter_args(%arg7 = %arg5) -> (index) {
        scf.for %arg8 = %c0 to %c56 step %c1 {
          %14 = arith.addi %arg7, %arg8 : index
          %15 = arith.muli %arg3, %c5 : index
          %16 = arith.muli %arg6, %c60 : index
          %17:3 = scf.for %arg9 = %c0 to %c3 step %c1 iter_args(%arg10 = %c0, %arg11 = %15, %arg12 = %16) -> (index, index, index) {
            %18 = arith.muli %arg11, %c5 : index
            %19:2 = scf.for %arg13 = %c0 to %c5 step %c1 iter_args(%arg14 = %arg12, %arg15 = %18) -> (index, index) {
              scf.for %arg16 = %c0 to %c5 step %c1 {
                %25 = arith.addi %arg8, %arg16 : index
                %26 = arith.addi %arg14, %25 : index
                %27 = memref.load %arg0[%26] : memref<14400xf32>
                %28 = arith.addi %arg15, %arg16 : index
                %29 = memref.load %2[%28] : memref<600xf32>
                %30 = memref.load %alloc[%14] : memref<34048xf32>
                %31 = arith.mulf %27, %29 : f32
                %32 = arith.addf %30, %31 : f32
                memref.store %32, %alloc[%14] : memref<34048xf32>
              }
              %23 = arith.addi %arg14, %c60 : index
              %24 = arith.addi %arg15, %c5 : index
              scf.yield %23, %24 : index, index
            }
            %20 = arith.addi %arg10, %c80 : index
            %21 = arith.addi %arg11, %c5 : index
            %22 = arith.addi %arg12, %c4800 : index
            scf.yield %20, %21, %22 : index, index, index
          }
        }
        %13 = arith.addi %arg7, %c56 : index
        scf.yield %13 : index
      }
      %10 = arith.addi %arg3, %c3 : index
      %11 = arith.addi %arg4, %c76 : index
      %12 = arith.addi %arg5, %c4256 : index
      scf.yield %10, %11, %12 : index, index, index
    }
    %6:2 = scf.for %arg2 = %c0 to %c8 step %c1 iter_args(%arg3 = %c0, %arg4 = %c0) -> (index, index) {
      %9 = scf.for %arg5 = %c0 to %c76 step %c1 iter_args(%arg6 = %arg4) -> (index) {
        scf.for %arg7 = %c0 to %c56 step %c1 {
          %13 = arith.addi %arg6, %arg7 : index
          %14 = memref.load %alloc[%13] : memref<34048xf32>
          %15 = arith.cmpf ugt, %14, %cst : f32
          %16 = arith.select %15, %14, %cst : f32
          memref.store %16, %alloc[%13] : memref<34048xf32>
        }
        %12 = arith.addi %arg6, %c56 : index
        scf.yield %12 : index
      }
      %10 = arith.addi %arg3, %c76 : index
      %11 = arith.addi %arg4, %c4256 : index
      scf.yield %10, %11 : index, index
    }
    %alloc_1 = memref.alloc() : memref<5472xf32>
    %7:2 = scf.for %arg2 = %c0 to %c8 step %c1 iter_args(%arg3 = %c0, %arg4 = %c0) -> (index, index) {
      %9 = scf.for %arg5 = %c0 to %c38 step %c1 iter_args(%arg6 = %arg4) -> (index) {
        scf.for %arg7 = %c0 to %c18 step %c1 {
          %13 = arith.addi %arg6, %arg7 : index
          memref.store %cst_0, %alloc_1[%13] : memref<5472xf32>
        }
        %12 = arith.addi %arg6, %c18 : index
        scf.yield %12 : index
      }
      %10 = arith.addi %arg3, %c38 : index
      %11 = arith.addi %arg4, %c684 : index
      scf.yield %10, %11 : index, index
    }
    %8:3 = scf.for %arg2 = %c0 to %c8 step %c1 iter_args(%arg3 = %c0, %arg4 = %c0, %arg5 = %c0) -> (index, index, index) {
      %9:2 = scf.for %arg6 = %c0 to %c38 step %c1 iter_args(%arg7 = %c0, %arg8 = %arg5) -> (index, index) {
        %13 = scf.for %arg9 = %c0 to %c18 step %c1 iter_args(%arg10 = %c0) -> (index) {
          %16 = arith.addi %arg8, %arg9 : index
          %17 = arith.addi %arg7, %arg3 : index
          %18 = arith.muli %17, %c56 : index
          %19 = scf.for %arg11 = %c0 to %c2 step %c1 iter_args(%arg12 = %18) -> (index) {
            scf.for %arg13 = %c0 to %c3 step %c1 {
              %22 = arith.addi %arg10, %arg13 : index
              %23 = arith.addi %arg12, %22 : index
              %24 = memref.load %alloc[%23] : memref<34048xf32>
              %25 = memref.load %alloc_1[%16] : memref<5472xf32>
              %26 = arith.maximumf %25, %24 : f32
              memref.store %26, %alloc_1[%16] : memref<5472xf32>
            }
            %21 = arith.addi %arg12, %c56 : index
            scf.yield %21 : index
          }
          %20 = arith.addi %arg10, %c3 : index
          scf.yield %20 : index
        }
        %14 = arith.addi %arg7, %c2 : index
        %15 = arith.addi %arg8, %c18 : index
        scf.yield %14, %15 : index, index
      }
      %10 = arith.addi %arg3, %c76 : index
      %11 = arith.addi %arg4, %c38 : index
      %12 = arith.addi %arg5, %c684 : index
      scf.yield %10, %11, %12 : index, index, index
    }
    %alloc_2 = memref.alloc() : memref<10944xf32>
    scf.for %arg2 = %c0 to %c5472 step %c1 {
      %9 = arith.shli %arg2, %c1 : index
      %10 = scf.for %arg3 = %c0 to %c2 step %c1 iter_args(%arg4 = %c0) -> (index) {
        %11 = arith.addi %arg4, %arg2 : index
        %12 = memref.load %1[%11] : memref<10944xf32>
        %13 = arith.addi %9, %arg3 : index
        memref.store %12, %alloc_2[%13] : memref<10944xf32>
        %14 = arith.addi %arg4, %c5472 : index
        scf.yield %14 : index
      }
    }
    %alloc_3 = memref.alloc() : memref<2xf32>
    scf.for %arg2 = %c0 to %c2 step %c1 {
      memref.store %cst, %alloc_3[%arg2] : memref<2xf32>
    }
    scf.for %arg2 = %c0 to %c2 step %c1 {
      scf.for %arg3 = %c0 to %c5472 step %c1 {
        %9 = arith.floordivsi %arg3, %c684 : index
        %10 = arith.remsi %arg3, %c684 : index
        %11 = arith.constant 0 : i1
        %12 = arith.addi %10, %c684 overflow<nsw> : index
        %13 = arith.select %11, %12, %10 : index
        %14 = arith.divsi %13, %c18 : index
        %15 = arith.remsi %arg3, %c18 : index
        %16 = arith.constant 0: i1
        %17 = arith.addi %15, %c18 overflow<nsw> : index
        %18 = arith.select %16, %17, %15 : index
        %19 = arith.muli %9, %c38 : index
        %20 = arith.addi %19, %14 : index
        %21 = arith.muli %20, %c18 : index
        %22 = arith.addi %21, %18 : index
        %23 = memref.load %alloc_1[%22] : memref<5472xf32>
        %24 = arith.shli %arg3, %c1 : index
        %25 = arith.addi %24, %arg2 : index
        %26 = memref.load %alloc_2[%25] : memref<10944xf32>
        %27 = memref.load %alloc_3[%arg2] : memref<2xf32>
        %28 = arith.mulf %23, %26 : f32
        %29 = arith.addf %27, %28 : f32
        memref.store %29, %alloc_3[%arg2] : memref<2xf32>
      }
    }
    scf.for %arg2 = %c0 to %c2 step %c1 {
      %9 = memref.load %alloc_3[%arg2] : memref<2xf32>
      %10 = memref.load %0[%arg2] : memref<2xf32>
      %11 = arith.addf %9, %10 : f32
      memref.store %11, %alloc_3[%arg2] : memref<2xf32>
    }
    memref.copy %alloc_3, %arg1 : memref<2xf32> to memref<2xf32>
    return
  }
}

